mnist_model.pth (torch, 943216 bytes, 6 tensors)

fc.0.weight f4 [256, 784]
000000 77 c6 1c 3c dd 20 06 3d 7b 46 94 3c 91 36 24 3d
       0.009568802 0.032746185 0.018100014 0.0400911
000010 58 50 8a 3c 95 14 44 3c 9b 86 23 3c a7 2f 3e 3d
       0.016884014 0.011967798 0.009980823 0.046432164
000020 02 10 05 3d 00 5c 92 bc c6 71 a0 bb 79 37 2b 3d
       0.03248597 -0.017866135 -0.0048963754 0.04180095
000030 93 b9 c7 3c f2 70 48 3d 2f e5 45 ba c6 f1 28 3b
       0.02438048 0.048935838 -0.00075491046 0.0025778874
000040 9b 22 32 3d f7 71 2e 3b 0a 61 ed 3c 7a d5 73 bc
       0.043490034 0.0026618221 0.028976936 -0.01488244
000050 8f f2 d9 3b 49 2c a8 bc f7 49 38 3d fd 74 20 3d
       0.0066512297 -0.02052893 0.044992413 0.03917407
000060 05 65 8b 3c ee 23 17 3d f1 d1 84 3c 68 f1 06 3d
       0.017015943 0.0368995 0.01621339 0.032945067
000070 e9 63 0a 3b d2 99 8c 3c 2b 2e ba bc 17 28 25 3d
       0.002111668 0.017163191 -0.022727093 0.040321436
000080 ed 14 76 ba a2 ff 44 3d 86 24 0c 3c 04 fb c8 bb
       -0.00093872735 0.048095353 0.00855363 -0.006133439
000090 03 54 05 3d 5a 4b af 3c 80 a4 ca bb 5d 4c ab bc
       0.032550823 0.021398235 -0.0061841607 -0.020910436
0000a0 af 21 d2 3b 9c 1d 02 3c 8c 40 75 3a 60 b4 36 37
       0.006412707 0.00794163 0.00093556265 1.0890042e-05
0000b0 04 a7 24 3c 62 22 18 3d fd 57 78 3c 36 56 0c 3d
       0.010049585 0.037142165 0.015157697 0.034261905
0000c0 6f 2f 88 3c 3f 7a d3 3b c3 0c 82 3c b0 fc 3b 3d
       0.01662418 0.006453782 0.015875226 0.04589528
0000d0 1f 9b a0 3b 88 b7 88 bc 4e 47 07 3c c6 66 e9 3c
       0.0049013044 -0.016689077 0.008256746 0.028491389
0000e0 c6 2d 05 3d 2a 0c f8 bb 37 3f b7 bc 80 1a 1b 3d
       0.032514356 -0.0075698094 -0.02236901 0.03786707
0000f0 2c ce ad bc c2 7b 66 3c ad 71 c3 3b 20 c6 79 bc
       -0.021216474 0.014067592 0.005964479 -0.015244991
000100 a1 1f 07 3c 1a 62 83 bc 5c 29 22 3d a2 f6 76 3c
       0.008247287 -0.01603799 0.039590225 0.01507345
000110 f2 db e8 3c d5 c1 fd bc 5a 32 4f 3c cd a5 fd bc
       0.02842519 -0.030976215 0.012646282 -0.030962849
000120 62 27 fb 3c 1d bd 17 3d 73 a3 75 3c f1 01 48 3d
       0.030658428 0.037045587 0.014992583 0.048829976
000130 50 73 82 bc ab de bb bb 7a 37 6a bc fa b8 05 3d
       -0.015924126 -0.005733331 -0.014295453 0.03264711
000140 f9 d3 c9 3c e6 a8 4c 3c 8a 25 fa bb ce 93 10 bc
       0.02463721 0.01249144 -0.0076338695 -0.008824302
000150 a4 44 9a bc f2 64 4b bc b8 10 09 3d 69 39 0b bb
       -0.018831559 -0.012414204 0.03346321 -0.0021243936
000160 a5 dd 9f 3c 11 f2 34 bb 92 6c 10 3b 96 fc f9 3c
       0.019514868 -0.0027610103 0.002203737 0.03051595
000170 c3 5f 37 bb 1a 2c 21 bd 3b ad 59 3b ca 6b 24 bb
       -0.0027980662 -0.0393487 0.0033214826 -0.0025088661
000180 d1 4f 57 3b cd 5c d3 3c f4 d0 a5 3d 4f 85 ea 3c
       0.003285397 0.025801087 0.08096495 0.02862802
000190 8c 7d 94 3d b9 80 38 3d d7 75 d9 3c 72 c7 d7 bc
       0.07250509 0.045044634 0.026545448 -0.02634022
0001a0 a7 0b 54 3c 5d b6 cc bc 56 db 45 bd 71 a3 b5 bc
       0.012942231 -0.024989301 -0.04830488 -0.022172661
0001b0 d0 63 10 bd b0 c7 a2 3c db 4f 6f b9 e4 c8 61 3c
       -0.03525144 0.019870609 -0.00022822565 0.013780806
0001c0 f1 47 c5 3c 7c 29 62 bb fc fc d7 bb 8d 06 e6 3c
       0.024082156 -0.003450959 -0.0065914374 0.028079296
0001d0 85 51 86 bc 30 ed 44 3c 74 1b 16 3d 56 f9 b6 3a
       -0.016396293 0.0120194405 0.036647275 0.0013959806
0001e0 92 f9 fc 3b cd 5d 24 3d a9 40 37 3d 6c ab 3f 3a
       0.007720181 0.040128518 0.0447394 0.00073116156
0001f0 f1 36 eb 3c 38 32 ed bd 79 b2 2b bd de 40 2d 3c
       0.028712722 -0.11581844 -0.04191825 0.010574548
000200 a9 22 dc 3a 49 65 66 3d 04 18 2d 3c e3 83 9c bd
       0.0016794998 0.056248937 0.010564808 -0.07642343
000210 08 53 8a bd cf f5 fd bc 5e 99 b1 bc 79 8b ec 3c
       -0.06754118 -0.031001 -0.021679576 0.0288751
000220 57 58 8e 3d 20 a3 ee 3c f8 19 96 3c 3f bd df 3c
       0.06950443 0.029130518 0.01832293 0.02731192
000230 79 ff 33 3d dc 03 0f 3d ae 35 af 3c 39 b2 85 bb
       0.04394481 0.03491579 0.021387901 -0.0040800837
000240 7d 73 c3 bc 08 30 8d 3c 0c c0 92 3c 79 3d ce 3d
       -0.02385878 0.017234817 0.01791384 0.10070319
000250 8f b4 1f 3e e5 9f 37 3e 3d f2 c7 3d d1 a5 ef 3d
       0.15596221 0.17932089 0.09763 0.11701549
000260 89 8e de 3c 34 ea 87 bc c0 e7 98 bb 2c d0 66 3d
       0.027167575 -0.016591169 -0.0046662986 0.056350872
000270 1f c4 56 3e d5 8b eb 3d 82 ee 86 3d e3 f3 8f 3d
       0.20973252 0.1150128 0.065884605 0.070289396
000280 ae c5 ca 3d f3 a0 3b 3d 46 f2 eb 3c 57 d6 77 3d
       0.09900986 0.04580779 0.028802048 0.060507145
000290 51 f9 32 3d 7b 41 ba b9 c7 67 d0 3c f6 d7 83 bc
       0.043694798 -0.0003552547 0.02544011 -0.01609419
0002a0 09 b5 0b 39 43 d8 b7 bc 62 dd 6c 3c f2 a2 32 3d
       0.00013323514 -0.022441989 0.014457079 0.043612428
0002b0 c0 db 40 3d 73 8d 0b 3d 31 f4 e2 3d f4 5f 8b 3d
       0.04708457 0.034070443 0.11081732 0.06805411
0002c0 01 a4 29 3e 99 48 46 3e bd 11 5f bc 64 ed 93 bd
       0.16566469 0.19363631 -0.013615069 -0.07223013
0002d0 73 31 80 bd b0 69 d4 bb 9c 02 14 3d 54 3a a9 3d
       -0.06259432 -0.0064823255 0.0361353 0.08263078
0002e0 75 f9 0b 3e f0 65 7a 3d 46 06 13 3e 38 0e 5a 3e
       0.13669379 0.06113237 0.14357862 0.21294487
0002f0 f4 2d 85 3e 8c 67 65 3e 7b 60 16 3e 39 85 12 3e
       0.26011622 0.22402781 0.14685242 0.14308633
000300 13 ff ae 3d a2 6f b4 3c 21 26 69 bb ad 18 9e bc
       0.08544745 0.022025887 -0.0035575705 -0.019298876
000310 a8 7a e7 bb 78 69 29 3d fb 9a 2e bc 09 b9 f1 3c
       -0.0070641823 0.04136035 -0.010657067 0.029507177
000320 0d e9 8b 3d aa 9e 3c 3d 99 de 97 3d ea d4 ca 3d
       0.0683156 0.04604975 0.07415504 0.099038914
000330 c7 89 1e 3e 75 89 4a 3c 3e 02 75 bc 47 33 86 bd
       0.15482245 0.012361874 -0.014954148 -0.06552749
000340 cb 13 32 be 03 7b a6 bd 41 ae e0 bd e5 61 92 bd
       -0.17390363 -0.081289314 -0.10970736 -0.07147578
000350 8c 51 90 3d 7a 56 8f 3d 82 8c 4a 3e b8 b4 5d 3e
       0.07046804 0.06998916 0.19780162 0.2165097
000360 6f ff 28 3e 89 f7 72 3e d0 a5 57 3e 7b 91 3c 3e
       0.1650369 0.2372724 0.21059346 0.18414871
000370 8d 67 19 3e e6 7d 2d 3c 07 fa 25 3d d0 fe 99 bc
       0.14980908 0.010589099 0.040521648 -0.018798262
000380 cb 16 c2 3c 26 0d 28 3b 32 cb 13 3c 58 b1 69 3c
       0.02369251 0.0025642603 0.0090206135 0.014263473
000390 ad d3 81 3c 11 5b 9e 3d 73 d3 84 3d 28 b8 9d 3d
       0.015848005 0.07732213 0.06485643 0.07701141
0003a0 31 11 21 3d 80 52 03 3d 11 65 c6 3d ed 2d 90 3d
       0.039323036 0.0320611 0.09687246 0.0704001
0003b0 49 24 31 bb 5c 6d fc bd d0 c4 47 be 3f a7 e3 bc
       -0.0027029684 -0.12325546 -0.19508672 -0.02778971
0003c0 1d 71 ac 3d 79 c2 96 bb 70 de 07 3e 69 1e 13 3e
       0.08420012 -0.0046008197 0.13268447 0.1436707
0003d0 33 75 41 3e e2 38 7c 3e 94 0e 43 3e bd 17 2e 3e
       0.18892364 0.24631074 0.1904853 0.17001243
0003e0 e7 ec be 3d 0d be 0a 3d be 38 49 bc 7c 39 1f 3d
       0.09322529 0.033872653 -0.012281595 0.03887318
0003f0 e7 07 47 3d 6b 33 42 3d 6b 93 21 3d e7 49 99 3c
       0.04859152 0.047412317 0.03944723 0.018711997

fc.0.bias f4 [256]
000000 2f 07 a7 bd 7a fa b6 3c 63 c4 06 bc 74 7b eb bc
       -0.08155667 0.022336233 -0.008225533 -0.02874539
000010 f2 cf a4 bd ea 99 24 bd e8 9b 71 bd ce 9e 2a bd
       -0.08047475 -0.040185846 -0.058986574 -0.041655354
000020 26 61 b8 3a 41 12 1f 3d 64 60 40 bd 9d 13 8f bc
       0.0014067038 0.038835768 -0.046966925 -0.017465407
000030 7c 57 3c bd 31 92 a0 3c c6 46 26 bd 5f 11 80 bd
       -0.04598187 0.01960096 -0.04059484 -0.06253313
000040 9c 81 78 3c a5 8b 75 bd 7e 7d 30 bd 75 b2 05 bc
       0.01516762 -0.05994763 -0.04308843 -0.008160223
000050 d7 dd d8 3c 9a f0 97 bd 9f 3d 3b bd ce a0 10 bc
       0.026472969 -0.07418938 -0.045713063 -0.008827401
000060 38 f8 bd 3c 4a be 51 bd 19 e4 6c bc 20 2e ca bc
       0.023189649 -0.051206864 -0.01445868 -0.024680197
000070 0e 17 b1 bc 5e 0e 5c 3c cf f0 65 bd 4c d9 37 3c
       -0.021617439 0.01343116 -0.056137856 0.011221241
000080 d0 b0 11 bd 47 9f 12 bc 9e b6 32 bd a2 c2 15 bd
       -0.035569012 -0.0089491075 -0.04363119 -0.03656257
000090 f0 95 eb bc b5 23 ac bc cc 10 88 3b f4 ea 43 3c
       -0.02875802 -0.02101312 0.004152393 0.011957873
0000a0 c6 d0 a0 bd bb 42 b8 3c 00 58 77 bc 8e 74 42 3c
       -0.078523204 0.022492757 -0.015096664 0.011868609
0000b0 76 04 42 bc a5 c7 ec bb 6c b9 f6 bc 7b 31 d6 3c
       -0.011841884 -0.007225948 -0.030117713 0.026146641
0000c0 de 64 f5 bc 07 ca 0e bd bf 89 72 bc b8 07 3a 3c
       -0.029955324 -0.034860637 -0.014803349 0.011354379
0000d0 8d 12 5c bb 72 b7 8b bd 35 0b 5e bd c9 2e 91 3c
       -0.0033580393 -0.06822099 -0.054209907 0.017722504
0000e0 3d 58 01 bb 45 ad 93 3c bf 35 d2 bc f2 c6 76 bd
       -0.0019736432 0.018026957 -0.025660394 -0.060248323
0000f0 da a3 a0 3b dd ca b3 bc 8a 5b 90 bb cf b9 12 3c
       0.004902345 -0.021947319 -0.0044054436 0.008955433
000100 a6 24 22 bd 61 80 0c bd 0d a8 cf bb 31 fc 7e bc
       -0.039585732 -0.03430212 -0.006337172 -0.015563057
000110 e3 11 40 bd ef 77 19 bb 84 2e cb b9 d3 51 a7 3c
       -0.046892058 -0.0023417433 -0.00038753834 0.020424759
000120 cb 78 3e bd 57 15 3d ba bf c4 91 bd 12 63 99 bc
       -0.046501916 -0.0007212958 -0.071176045 -0.018723998
000130 85 bf 1d 3d 34 c7 9a bc 35 85 62 bd fc 15 1d bd
       0.038512725 -0.018893816 -0.055302817 -0.038351044
000140 c9 f1 73 bc 63 5d c5 3b 73 85 2d 3d 88 61 88 bd
       -0.014889189 0.0060230955 0.042363595 -0.066592276
000150 54 be 14 bd ab 3a 17 bc bc 68 65 bc 07 42 b9 bc
       -0.036314324 -0.009230296 -0.014002021 -0.022614492
000160 cd 99 e0 bc 8b 78 29 bd 37 64 57 bd d2 da c7 bc
       -0.027417088 -0.041374724 -0.052585807 -0.024396334
000170 91 ea 35 bd ae 0c 19 bc 9f c0 f5 3c 06 27 b5 bc
       -0.044413153 -0.009341402 0.029999075 -0.022113334
000180 8a 8a 15 bd ff 75 23 3c 7d 99 e0 3b 22 ff ea 3b
       -0.036509074 0.009976863 0.0068542347 0.0071715275
000190 da 06 25 bd 87 9f b4 bd 72 7a 2b bd b2 71 aa bb
       -0.040289737 -0.0881949 -0.04186482 -0.005201542
0001a0 0f 15 6e bd ed 95 57 bc d7 72 1b bd 89 e6 e6 3b
       -0.05812555 -0.013158304 -0.037951317 0.007046525
0001b0 8b 18 28 bd 2c 94 4f bd d4 bf 02 bd 37 7e 29 bd
       -0.04103903 -0.050678417 -0.031921223 -0.041380133
0001c0 00 3f 2a bd 3b 4d 4a bd 52 2c 92 bd fd 12 0b bc
       -0.041563988 -0.04939006 -0.0713736 -0.008488414
0001d0 cb 35 60 bc 48 cd 3e bd e1 9c 10 bd f0 c1 83 bd
       -0.0136847 -0.04658249 -0.03530586 -0.06433475
0001e0 65 a2 7d bc 32 9b 0e 3d 93 4c 79 bd 5c 31 82 bc
       -0.015480612 0.034815975 -0.060864042 -0.015892677
0001f0 af c7 6b bd 7b 24 0b bd 3b 93 d1 bc f8 72 0a bc
       -0.05756348 -0.033970337 -0.0255829 -0.008450262
000200 ad a9 d9 bc ba da 37 bd 9a f4 94 bd 16 b8 cc bc
       -0.026570166 -0.04488633 -0.072732165 -0.024990123
000210 c4 4b 06 bc 6d a6 8d bd 6c 4b 29 bd 94 07 39 bd
       -0.008196775 -0.06916509 -0.041331694 -0.045173243
000220 2e 71 30 bc a6 f2 43 bd 26 52 6c bd 0b 34 a2 bc
       -0.010769172 -0.04783883 -0.05769553 -0.019800207
000230 ce 3b ad 3c ff 37 1d 3c c4 81 93 bc 01 fd 5a bc
       0.021146681 0.00959587 -0.018006213 -0.013365985
000240 ee 41 e3 3b 8d af 59 bd a8 a1 40 bd 74 69 0f bd
       0.0069353497 -0.053145934 -0.047029167 -0.035012677
000250 18 5e 81 bb ca 5c 05 bd a4 f3 73 bc 12 af 47 bd
       -0.0039479844 -0.032559194 -0.014889631 -0.048750944
000260 84 e9 d8 bc 0d 88 24 bd 3a a5 60 bc 97 37 4f bc
       -0.026478536 -0.04016881 -0.013711268 -0.012647531
000270 05 73 2b bd 98 d1 bd bc 1a 1d 7d bd 41 ca 66 bd
       -0.041857738 -0.023171231 -0.06179533 -0.056345228
000280 ed d7 6d bc f8 52 0a bd d7 d4 21 bc cb e2 3c bd
       -0.014516813 -0.03377053 -0.009877405 -0.046114724
000290 2c 1c d2 3c 34 b4 09 bd 94 4a 5a bd 9b d3 21 bd
       0.025648199 -0.03361912 -0.05329378 -0.039508443
0002a0 0a b6 c6 bd 44 8d 2b bd d3 35 69 bd f9 6a 07 bd
       -0.0970269 -0.04188277 -0.056936096 -0.033061
0002b0 46 71 e6 bc 0d 02 16 bd 1b 40 be bb 42 42 e6 bc
       -0.028130185 -0.03662305 -0.005805982 -0.028107766
0002c0 0b b4 40 bd ed 76 ec bc 5e 66 49 bd e5 b0 82 3a
       -0.047046702 -0.028865302 -0.04916989 0.0009970932
0002d0 af 17 3f bd 39 49 49 bd 87 c7 21 bd 81 dd 45 bd
       -0.046653446 -0.049142096 -0.039496925 -0.048306946
0002e0 9b 51 54 bd 5b 95 a9 bc 9e 9a 3e bd 8b fe 5b bd
       -0.051835638 -0.020701101 -0.046534173 -0.053709548
0002f0 b7 8b 87 bb 8d af 5b bd c4 54 a1 3b 77 02 dc bc
       -0.0041365284 -0.053634215 0.004923435 -0.026856644
000300 1f a6 23 3c 76 9e 9d 3a 3e 18 9a bc 49 7f 67 bd
       0.009988337 0.0012025374 -0.018810388 -0.056517873
000310 b9 7f f5 bc 45 ca 0c bd 16 b7 3f bd a0 f2 01 bd
       -0.02996813 -0.034372587 -0.046805464 -0.031725526
000320 26 de 8e bb 35 92 e5 bc f9 53 56 bd a0 5c 8b bd
       -0.0043599783 -0.028023819 -0.052326176 -0.06804776
000330 ac a6 05 bd 9b 1d 64 bb 4b ef e4 bb 72 81 9f bc
       -0.032629654 -0.0034807685 -0.0069865338 -0.019470904
000340 6d 72 12 bc 69 59 c7 bc af 72 70 bc ef 7f 12 bd
       -0.008938414 -0.024334626 -0.01467578 -0.03576654
000350 7f d0 04 3c c5 98 2c bc 45 51 72 bc b1 d3 11 bd
       0.00810635 -0.01053447 -0.014789884 -0.035602275
000360 f1 bf 42 bd 4c a2 29 bc 56 da b9 b9 ad 16 2b 3d
       -0.04754633 -0.010353636 -0.00035448623 0.041769672
000370 99 9b 3e bd 81 61 48 bd 71 c9 55 bc a5 af 6b bd
       -0.04653511 -0.048921112 -0.013048516 -0.057540555
000380 9e 2d c5 bc 02 e2 37 bc 04 70 23 bd a2 c7 43 bd
       -0.024069604 -0.011223318 -0.03990175 -0.047797807
000390 17 54 a4 bd f3 c7 f1 ba 97 d3 17 bd 53 a2 db 3a
       -0.08023851 -0.001844643 -0.037067022 0.001675675
0003a0 1a 3d b3 bd 52 e9 11 bd 01 5e 24 bd 04 44 71 bd
       -0.087518886 -0.035622902 -0.04012871 -0.058902755
0003b0 6d cc 82 bd d8 d5 28 bd 19 16 b1 bc a8 59 9c bb
       -0.063866474 -0.041219562 -0.021616982 -0.00477143
0003c0 ff 76 40 bd d3 c4 4c 3b 37 6e 1d bd c2 13 39 bd
       -0.046988484 0.0031245246 -0.038435187 -0.04518486
0003d0 64 1d 8d bc cf 50 af bc 11 4e 79 bd 0c 58 80 bb
       -0.017225929 -0.021400837 -0.060865466 -0.003916746
0003e0 c8 e9 97 3c ee 7e 8e 3c d3 6e 04 bc 37 6f 30 bd
       0.018544093 0.01739451 -0.008083063 -0.043074813
0003f0 a0 09 d3 bc ec 34 3c bd 37 52 47 bd 40 e8 8c bb
       -0.025761425 -0.045948908 -0.04866239 -0.0043001473

fc.2.weight f4 [128, 256]
000000 06 ea 15 3e fd be 01 bd 9b ba 20 be 41 1c de bd
       0.14640054 -0.03167628 -0.15696184 -0.10845233
000010 c8 55 b8 bc 9c c2 78 bd 9f 65 9a 3d 85 e4 90 be
       -0.022501841 -0.06073247 0.07538914 -0.28299347
000020 0e f1 c9 bd 5c 08 a3 bd 9f 07 45 bc 87 a0 b6 bc
       -0.09860431 -0.07960579 -0.012025743 -0.022293342
000030 a0 94 2e 3b dc 56 5c be 9a 6b 37 bd b2 9d 6f bd
       0.002663888 -0.21517509 -0.04478035 -0.0585
000040 4c 73 8c bd 73 61 13 3d 00 ba 4f bd 65 b6 73 bc
       -0.06857929 0.035981607 -0.050714493 -0.014875029
000050 14 e3 c0 3d 28 30 ac bd f7 9d 90 bd b3 ed 3f bd
       0.09418312 -0.084076226 -0.070613794 -0.046857547
000060 fa 32 48 bd 55 1d 3d 3b a3 a8 c7 bd 91 c1 7f 3c
       -0.04887674 0.0028856595 -0.09748962 0.015610115
000070 0b d2 75 bd 14 60 8d 3d b8 e7 7c bd cb 90 a6 3d
       -0.060014766 0.06903091 -0.06174442 0.08133086
000080 75 23 81 bd a0 1c 86 bc da 43 6f 39 02 0b c4 bd
       -0.06305591 -0.016371071 0.00022818093 -0.09572412
000090 b7 b3 ab 3c 16 fa 4d 3e 64 d2 45 3c f7 fb 7b be
       0.020959718 0.20114931 0.012074087 -0.24607836
0000a0 6e 11 2d bd 84 4c 64 3c 61 54 3a be 49 c2 72 3b
       -0.04225295 0.013934258 -0.1819625 0.0037042073
0000b0 b6 72 35 bd 76 59 8b 3d 55 eb 1e 3e d1 8a 0f 3e
       -0.04429885 0.06804173 0.1551946 0.14017798
0000c0 15 2c 04 be 23 41 4d 3e 49 ca 86 3d 4d cc 98 3d
       -0.12907441 0.20044379 0.065815516 0.07460842
0000d0 ef 95 2c 3d c2 37 68 bd 07 34 d6 3d da 5f e5 3b
       0.042135175 -0.0566938 0.10459142 0.006999952
0000e0 80 c7 c0 be 74 85 9e 3d 24 30 d8 bc a1 a3 00 bd
       -0.37652206 0.07740298 -0.026390143 -0.03140605
0000f0 e8 25 d4 bd 60 2c 53 3e 45 1d 88 3c 02 2b f5 bd
       -0.103587925 0.20622396 0.01661552 -0.11971094
000100 fb 69 1f be e4 2f e1 3d 28 f2 51 3d 7e 31 ec 3c
       -0.15567772 0.109954625 0.05125633 0.028832193
000110 49 f6 b2 3d ef dd ca bc c4 90 7d be 5f bc 04 3e
       0.087383814 -0.02476403 -0.24762255 0.12962483
000120 f3 06 38 bd da 0d 17 be 0d 7a d6 3d c6 a1 03 3d
       -0.044928502 -0.14751378 0.10472498 0.0321367
000130 d7 36 f2 3c 01 cc 25 bd a4 76 67 be 62 fb 59 3c
       0.029567165 -0.040477756 -0.22603852 0.013304563
000140 1a 5d 28 3e b8 d0 82 3d fa 1a d9 3d ca 25 26 3e
       0.16441765 0.06387466 0.106008485 0.16225353
000150 22 7b 4a 3d d1 e0 92 bd 91 22 d3 bb 79 67 8d bb
       0.049433835 -0.071717866 -0.0064433296 -0.0043153134
000160 a8 10 1c 3d 53 fc ad bd 0c 36 37 3d 20 97 37 bd
       0.038101822 -0.08495393 0.044729277 -0.04482186
000170 87 3b 76 3c 6c 0b bd 3e 68 b2 91 bd 2d 19 17 3d
       0.015028841 0.36922777 -0.071141064 0.036889244
000180 24 21 3c 3d 85 dd d1 bd 27 fc 5b 3e 9c 71 8f 3c
       0.045930043 -0.102473296 0.21482907 0.017510228
000190 40 a5 20 bc 62 5e 86 bd f5 5f 33 be 11 57 be bd
       -0.009805024 -0.06560971 -0.17517073 -0.0929395
0001a0 67 95 30 3e ab ce 09 3d d0 e7 0e 3e 67 d5 79 bb
       0.17244492 0.03364436 0.13955617 -0.0038121582
0001b0 ab 60 cf bd a7 c3 b5 bd 4a e3 d5 bc bc bb 45 3d
       -0.1012586 -0.08875208 -0.026109356 0.04827474
0001c0 26 61 93 3d 81 6a 95 3d ff 08 5b 3d 0a 04 eb bb
       0.07196264 0.07295705 0.053475376 -0.0071721124
0001d0 fd 4c 89 bd 00 66 ef bd 50 f9 32 bd 6d b6 a8 3d
       -0.067041375 -0.11689377 -0.043694794 0.0823792
0001e0 ec bb e4 3d 64 e5 fb bd 05 35 93 bd db 19 26 3d
       0.11168656 -0.12299612 -0.07187847 0.040552
0001f0 66 4a 10 bd 54 f3 b9 3c 7c 49 e6 bc 05 0d 3e be
       -0.035227202 0.022699036 -0.028111212 -0.18559654
000200 be 28 fe bd 2b a2 20 bd 9d 73 d5 bc 73 22 7f bd
       -0.12410115 -0.039217155 -0.026056105 -0.062288713
000210 ca 06 d6 bd 0f 45 4a bd 3a 93 c8 3c 65 67 e8 3d
       -0.10450514 -0.049382266 0.024484266 0.11347846
000220 dd 0e 8e 3c ce b8 1d ba bd e9 2a 3d f8 45 fd bc
       0.017341072 -0.0006016613 0.041726816 -0.030917153
000230 ef ce 16 3a 3a 35 81 3d 0b 7d 8d 3d 7d e8 75 be
       0.00057528814 0.0630898 0.06908616 -0.24014468
000240 75 16 b6 bc 56 e1 8a 3b a9 5e 51 3e 1f 1d 14 be
       -0.022227505 0.004238288 0.20446266 -0.14464234
000250 24 cf 11 bc 8d fb 84 3d 4e 77 76 bc a7 b8 94 bc
       -0.008899484 0.06493292 -0.015043093 -0.018154455
000260 89 f4 94 3e ad a7 59 bd 4f 6f 2a bd 55 b7 4f 3d
       0.29092816 -0.053138424 -0.04161006 0.05071195
000270 5e 3b 99 3c 59 b7 ce bc f4 da 4f 3c 95 31 2d 3d
       0.018705066 -0.025233911 0.01268648 0.042283613
000280 4a 8e f8 bc aa f1 6c 3d fe 8b 9a bd 91 59 4a bd
       -0.030341286 0.057847656 -0.07546233 -0.049401823
000290 48 11 65 be 0c 79 e4 3c 22 64 36 3c 08 ee 8c bd
       -0.22369874 0.02788975 0.011132272 -0.06881338
0002a0 a4 60 e3 bd 81 3e c7 bc 6a ed 4a 3d 1b 56 17 3e
       -0.11102417 -0.024321796 0.049542822 0.1477894
0002b0 e7 58 46 3c 29 df 48 be 22 41 05 3d ed 44 40 3d
       0.012106157 -0.19616379 0.03253282 0.046940733
0002c0 ce 67 87 bd d4 9f 81 bc ad 22 a1 be fd 58 2f 3b
       -0.06611596 -0.015823282 -0.31471768 0.0026755922
0002d0 d9 ed 20 3d 36 2c 16 3e 2a 43 67 be 46 cf d2 3b
       0.03928933 0.14665303 -0.22584215 0.0064334003
0002e0 76 19 40 3c 6b f6 44 be 10 5f 1b bd 5d 37 12 be
       0.01172482 -0.19234626 -0.037932456 -0.14278932
0002f0 69 13 fe bd fe c0 cf bc 95 29 a1 bc 1d 31 3e 3d
       -0.12406046 -0.02536058 -0.019673148 0.046433557
000300 d9 6b 26 be d1 96 35 bd 5f 32 d2 bc 38 52 c9 bd
       -0.16252078 -0.044333283 -0.025658784 -0.09830135
000310 67 1e 57 3d b3 71 51 bd 8d c9 1b be 9a 5d 15 be
       0.05251923 -0.051133823 -0.15213604 -0.14586487
000320 7e 60 fb bd 3f 9e f0 3b 50 5a 77 3d d2 84 16 be
       -0.12274264 0.007343083 0.060388863 -0.14699104
000330 45 63 70 bd 02 f5 63 bc c3 11 4a 3d 05 e8 c2 bd
       -0.05868842 -0.013913395 0.049333345 -0.095169105
000340 83 0a 19 3e 07 65 15 3e e5 05 7b 3c 0b ad ce 3d
       0.14945416 0.1458932 0.01532123 0.10091599
000350 c2 87 eb bd 2c ce 36 bd 2f 18 a7 be d0 21 ed 3d
       -0.11500503 -0.044630215 -0.32635638 0.11578715
000360 6f c0 43 3d 44 f4 86 3d a6 96 1b 3d e4 33 93 3e
       0.04779094 0.06589559 0.037985466 0.28750527
000370 e1 a6 eb 3d 14 eb 6a 3d e4 b2 87 bc 97 31 bd be
       0.11506439 0.057353094 -0.016564794 -0.36951897
000380 b2 73 95 bc 46 5a f9 bd f6 45 f9 bc 07 a4 02 be
       -0.018243644 -0.121754214 -0.030428868 -0.12757884
000390 63 ef 2d 3d 74 b5 9f 3a ec 7c 0d be 51 db 1b 3d
       0.042464625 0.0012184815 -0.13817185 0.038050953
0003a0 e4 f8 5c 3d b3 9b e9 bd a2 e1 25 bc ef 25 af bd
       0.053948298 -0.114066504 -0.010124596 -0.08552157
0003b0 f7 b3 d1 bd 8c 40 86 bd 7e 7c 86 3d 62 33 f7 3c
       -0.10239404 -0.0655528 0.06566714 0.030175868
0003c0 35 96 32 bc 56 76 97 bd 2e 0b 25 bc 55 43 3a bd
       -0.01090007 -0.07395618 -0.010073466 -0.04547437
0003d0 43 8a 16 3e af fa 42 bd ca e2 38 3d df d0 cd 3a
       0.1470118 -0.04760235 0.045138158 0.0015702507
0003e0 bb 7d 02 3c 29 95 d0 3d 4f 46 61 3d 93 7e 95 bc
       0.007964547 0.101847 0.054998692 -0.018248832
0003f0 f6 b2 a7 bd 8e 5b 36 bc 73 5c f2 3c a7 de 66 3d
       -0.08188431 -0.011130227 0.029585099 0.05636468

fc.2.bias f4 [128]
000000 d8 3d 07 3d 1f e1 56 bd e3 f3 0c 3d b3 5a d2 bd
       0.033017963 -0.052460786 0.034412276 -0.10271206
000010 3e 1a 97 3d ee 39 98 bd 42 5a 81 3d e0 83 38 3d
       0.07378052 -0.07432924 0.063160434 0.04504764
000020 20 9c 92 bc fc e3 a6 bd 8a d1 83 3d 29 98 3d be
       -0.017896712 -0.08148953 0.06436451 -0.18515076
000030 48 71 5a bc c5 be 8b be 9a 3a 0c 3e 3a 32 87 3c
       -0.013332672 -0.27293983 0.1369423 0.016503442
000040 a0 75 8c 3d 55 6b 8b 3d 06 78 f3 3d a2 35 dc 3d
       0.06858373 0.06807581 0.11888127 0.10752417
000050 c8 83 26 be 49 65 d2 bd 01 06 0b 3e 99 82 67 3d
       -0.16261208 -0.10273225 0.13576509 0.056521032
000060 4d 60 ad bd 35 37 b3 bb ad 9a 3e 3c 87 83 25 be
       -0.084656335 -0.0054692277 0.011633557 -0.16163455
000070 25 fd 91 bd fb 75 0f 3e c0 24 03 3e aa 25 3b bd
       -0.071283616 0.1400985 0.12806988 -0.045690216
000080 40 d0 1c bd 5b 10 d8 3d 34 cd d8 bd 1d 67 6f be
       -0.03828454 0.105499946 -0.105860144 -0.23379178
000090 da 7a 78 bd 1d 0f c6 3d a6 e8 f0 bb 75 8d 97 bd
       -0.060664035 0.096708514 -0.0073519526 -0.07400028
0000a0 bf e1 01 bd ad 35 ed 3c 67 b3 1f bd d4 11 4e be
       -0.03170943 0.028956259 -0.03898945 -0.20123988
0000b0 6e 39 7f 3d 51 d4 b5 bc f5 f3 c9 bc f4 17 26 bd
       0.06231063 -0.022195967 -0.02465246 -0.040550187
0000c0 67 c2 01 3e 6d 0d c0 3c ec 71 a9 bc a0 e7 a5 3d
       0.12671815 0.023443902 -0.020684205 0.081008196
0000d0 37 96 cc 3d bd 51 23 be 55 24 bc bc ec 9f 3c bd
       0.09989589 -0.1594915 -0.022966543 -0.04605095
0000e0 18 d1 8b bb f9 82 0d 3c 32 72 47 be 57 99 99 bd
       -0.0042668693 0.008637183 -0.19477156 -0.074999504
0000f0 11 ed 12 3e 39 b7 68 bb b0 65 00 be cb 2e bf bd
       0.14348246 -0.00355096 -0.1253879 -0.09335097
000100 6e 26 1a be 90 bb 96 3b 0d 53 4f be f9 c9 81 bd
       -0.15053722 0.004599996 -0.20246525 -0.06337351
000110 b6 0d 2f 3e 61 67 1f bd db 99 b6 3d 62 dc e0 bb
       0.17095074 -0.03891695 0.08916064 -0.006862209
000120 fa c5 5a be 6f 07 9a bc a0 da 6f bd 7f 7b a6 3b
       -0.21364585 -0.018802373 -0.058558106 0.00508064
000130 38 ae 42 bd 3a c3 f7 bb af a9 bb bd 52 24 23 be
       -0.04752943 -0.0075611146 -0.09163224 -0.15931824
000140 00 14 15 bd 79 ac 5f bd 28 57 d7 bd 93 d6 3c 3e
       -0.036396027 -0.054607842 -0.105146706 0.18441229
000150 c0 29 63 3d e7 f9 24 be f0 66 31 3e 5d 4e 00 be
       0.055459738 -0.16110955 0.17324424 -0.12529893
000160 73 c0 74 3e fa 0a 54 3c 22 dc dc 3c 4a 39 74 3d
       0.23901539 0.01294207 0.026960436 0.059624948
000170 4a 1c 1e bd 5f 80 8e bd 62 36 1e be b3 89 d0 bd
       -0.038601197 -0.069580786 -0.15450433 -0.10182514
000180 b0 a7 d4 bd 7d 01 f3 bd c2 14 14 3e 82 f5 00 be
       -0.10383546 -0.11865518 0.14461043 -0.12593654
000190 e3 14 26 3e e4 ee f2 bd 3d f0 7d bc cd bb 26 3e
       0.16218905 -0.11861971 -0.015499172 0.16282578
0001a0 d7 4b 36 3e ca d7 ee bd 22 b9 e5 bd e5 b5 df bd
       0.17802368 -0.11662252 -0.11216952 -0.109233655
0001b0 96 19 2e 3c 4f 5e 03 bd 97 4d c3 bd 40 45 cc bd
       0.010626217 -0.03207236 -0.095362835 -0.09974146
0001c0 6a f4 1a 3c b2 00 f4 3d 46 fc 8f 3d 1a 75 6e bc
       0.009457687 0.11914195 0.07030539 -0.014554286
0001d0 f5 95 1f be e8 86 ac 3d f0 ed 24 bd cf d6 60 3e
       -0.15584548 0.08424169 -0.040265977 0.21956943
0001e0 83 d3 7b bd fc fb c7 bd 80 87 7c bd dd e5 8c bd
       -0.06148101 -0.09764859 -0.06165266 -0.068797804
0001f0 93 d5 7c 3d 46 05 d4 bd df d6 2a bd b3 d2 4a 3d
       0.061727118 -0.10352568 -0.041708823 0.049517345

fc.4.weight f4 [10, 128]
000000 48 98 21 3e 11 6d 31 bd 62 f6 ee bd 68 2b c2 be
       0.15780747 -0.043316904 -0.116680875 -0.3792374
000010 9a de 49 be 67 77 a7 3d af 3a ec 3d 05 3c 32 be
       -0.19713822 0.08177071 0.115346305 -0.17405708
000020 47 06 fc bc c0 b4 0e 3e 05 56 15 3e 0f 85 72 3e
       -0.030764712 0.13936138 0.14583595 0.2368357
000030 af 31 a7 be 19 33 19 3e 3c c6 c4 3d 97 d1 f2 3c
       -0.32655093 0.14960898 0.09608123 0.029640956
000040 1d 98 61 bd b8 af 0d bd dc 48 25 3e a4 c8 95 be
       -0.055076707 -0.034591407 0.16141075 -0.2925464
000050 9b 84 82 3d 05 3b 14 be dd fe 39 be 81 44 85 3d
       0.06372949 -0.14475639 -0.18163629 0.06507207
000060 ad c1 8c be 17 cb 8a be c8 b0 d7 bc c7 38 a2 be
       -0.27491513 -0.2710807 -0.026329413 -0.31683943
000070 0b ae 84 3d cd e6 ab 3d cd b6 39 be 1a 49 b9 3d
       0.064785086 0.08393631 -0.18136139 0.09047146
000080 bf 6b 05 be fc a2 da 3c b9 85 ab bd fa 1f ae bc
       -0.13029383 0.026689045 -0.08375115 -0.021255482
000090 e8 32 b9 bc 33 fa 66 be 2a dc 2e 3e fd c3 22 be
       -0.022607282 -0.22556381 0.17076173 -0.15895076
0000a0 dc 0e 31 bd 27 c7 22 3c 75 49 d2 bd 6c ce f2 bb
       -0.04322706 0.009935177 -0.10267917 -0.0074098613
0000b0 50 44 2c be f0 dc cf 3a 55 73 09 be a2 77 d3 3c
       -0.16822934 0.0015858691 -0.13422902 0.025813881
0000c0 6d de ee bc 48 22 a9 3d 92 12 37 3d 1d 5d 90 bd
       -0.029158795 0.08258492 0.044695444 -0.0704901
0000d0 4b 52 19 be 65 8d 24 3e 92 a2 35 bd 8d 06 2d 3d
       -0.14972799 0.16069563 -0.044344492 0.042242575
0000e0 e2 74 17 bd fb 7e 31 3e 6b f9 25 3c 2e e8 83 be
       -0.036976703 0.17333595 0.010130267 -0.25763077
0000f0 80 bd e8 bd e7 61 36 3d 3f bd c1 bd f9 d8 d8 bd
       -0.11364269 0.04452696 -0.09459924 -0.10588259
000100 d8 98 30 bd b7 f3 a1 be 5f f6 26 3c 26 1a 81 3c
       -0.043114513 -0.31631252 0.010190575 0.015759539
000110 a8 12 df bc 2e 9f 08 bd d0 f1 d7 bd fc 05 86 bd
       -0.027230576 -0.03335493 -0.10544169 -0.0654411
000120 88 07 4e be 2d 61 25 be e1 91 75 bd a6 7c 5f be
       -0.2012006 -0.16150351 -0.059953574 -0.21824893
000130 f8 05 a1 3c a1 b5 64 3d b0 fc a6 be 84 c2 47 3e
       0.019656166 0.055837277 -0.3261466 0.19507796
000140 fc ec f4 3d a6 c6 10 3e 60 cd 00 be 95 97 8c bc
       0.11959264 0.14138278 -0.12578344 -0.017162124
000150 f1 31 1e 3e b9 89 13 3e dc ec fc bd 13 ae cf 3c
       0.15448739 0.14408006 -0.12349865 0.02535156
000160 31 49 81 3e a5 25 30 be b8 8f 87 3d 02 f6 ec 3d
       0.25251153 -0.1720186 0.06619209 0.1157036
000170 90 01 8a 3b 70 03 25 be 06 a1 b6 bc 5e 41 a0 be
       0.004211612 -0.16114593 -0.022293579 -0.3129987
000180 4b c4 e1 bc cd d8 6c 3d 61 ce cc 3c 23 02 16 bd
       -0.02755942 0.057823945 0.025000753 -0.03662313
000190 b3 7f 3f 3d b0 79 df 3d 2c 2f f5 3c 28 29 a9 3c
       0.046752643 0.10911882 0.02992972 0.020649508
0001a0 fc 7f c2 bd bb eb 0b 3e 59 6b a5 bd ea 4f 31 3d
       -0.09497067 0.13664143 -0.080771156 0.043289103
0001b0 f9 29 8c be 57 b2 2c 3e 3d 0b d7 bc aa 4b 0b bd
       -0.27375773 0.16864906 -0.026250476 -0.034007706
0001c0 09 9b 21 3c 25 40 47 3e 88 92 1a 3e 64 a4 14 3d
       0.009863623 0.19458063 0.1509496 0.036289588
0001d0 7f 12 3f be b0 85 c7 bd 2b 8b b6 be 31 bc 06 bd
       -0.186594 -0.09742296 -0.35653052 -0.032894317
0001e0 25 f5 03 3b dd 61 d0 3d ba 59 ff 3c 09 13 38 bd
       0.0020135131 0.10174916 0.031170715 -0.04494003
0001f0 99 22 39 bd ad 94 c3 bd 2c aa ff ba 0a 9b e8 bd
       -0.04519901 -0.09549842 -0.0019505671 -0.11357696
000200 1b 16 b3 be 99 87 85 bc 70 62 8d bd ed 0d c9 3d
       -0.34977803 -0.01630001 -0.06903541 0.09817109
000210 51 dd a4 3d 2c 1b b2 bb 19 1d 96 bd 14 47 0d bd
       0.08050025 -0.005435368 -0.07329769 -0.034491614
000220 e9 cf be 3b ef 44 c2 bd a5 31 65 be 37 50 ec be
       0.0058231247 -0.09485804 -0.22382219 -0.4615495
000230 7e b0 28 b9 0d e7 70 3e 7c 14 8d bd 5a 72 7c bd
       -0.00016087477 0.23525639 -0.06888673 -0.06163249
000240 77 88 39 3d 93 9f 67 bd 34 04 d1 be 81 ac 5a 3e
       0.04529616 -0.056548666 -0.4082352 0.21354868
000250 04 e2 f7 bd 97 6c 3f 3d e5 c7 1f bd 57 09 21 be
       -0.12103656 0.04673442 -0.039008994 -0.15726219
000260 24 3b 8c 3d 8a 20 24 3c 48 e3 69 3a 3b f9 d0 3d
       0.06847218 0.010017524 0.0008922112 0.10203787
000270 0b 6d 86 bd e2 e8 f2 3d 65 e5 81 bd 9e ff 29 3e
       -0.06563767 0.11860825 -0.06342582 0.16601416
000280 71 e5 6c be ca 50 2b be 7a 57 c0 bd 9e ac 57 3e
       -0.231344 -0.16730037 -0.09391685 0.21061942
000290 97 60 de 3d 16 b2 a4 bd 25 f0 5a be 0c 37 93 3d
       0.10858267 -0.0804178 -0.2138067 0.07188234
0002a0 32 1d 77 bd 65 dc aa be 07 31 08 bd a9 9a ef 3d
       -0.060330577 -0.33371273 -0.03324988 0.11699421
0002b0 49 b5 1c bd ae e7 2e 3d 28 fa a0 be 85 ee dc bc
       -0.038258824 0.042701416 -0.31440854 -0.026969204
0002c0 02 2e 8e be ad 22 6a bd 0f 0d 6f bd c0 f0 54 be
       -0.27769476 -0.057161976 -0.058362063 -0.20794964
0002d0 2b c1 b9 bb 93 e7 28 3e a3 d6 5a 3e aa ff 3a be
       -0.0056687794 0.16494589 0.2137094 -0.1826159
0002e0 49 91 ce 3c 26 df 8a bd 26 62 ec bb 9a fc 87 be
       0.025215762 -0.067808434 -0.0072138486 -0.26559907
0002f0 d7 cf a9 bc aa e2 40 bc 1f 0f 89 bd 4d 0d d5 3d
       -0.020728989 -0.011772791 -0.06692337 0.104029275
000300 b0 de aa 3d 01 c1 04 be b8 86 89 bd 9f d5 b7 bc
       0.083432555 -0.1296425 -0.06715149 -0.02244073
000310 01 6d 82 3d c5 b3 dc 3c f0 a4 34 bc 4a ec a6 3d
       0.06368447 0.02694119 -0.011025652 0.08150537
000320 63 1e 0d 3e 38 6a 89 3d f6 61 a3 bc 40 6c 36 bd
       0.13781123 0.06709713 -0.019944172 -0.04453683
000330 14 1e 51 bd 88 2b ac 3d 98 31 2e 3e b6 79 3a 3d
       -0.051054075 0.084067404 0.17011106 0.04552623
000340 9b 87 7e bc 6d 06 9f 3b f0 45 6a bd dc d8 20 be
       -0.015535261 0.004853061 -0.057195604 -0.15707725
000350 ab db 9c be 88 2b ef bd 15 e1 4f be cc 02 1c be
       -0.30636343 -0.11678225 -0.20300706 -0.15235442
000360 0d 49 24 3e 08 80 35 be f4 63 df bc be 07 46 3d
       0.16043492 -0.17724621 -0.027269341 0.048347227
000370 d5 d4 08 3d 54 4a ae bc 1b 7d 99 3e 5d ec b4 3d
       0.033406097 -0.021275677 0.2997826 0.08834145
000380 3c 9d 17 be df 80 86 3e 13 87 c7 be 28 91 8f 3d
       -0.14806074 0.26270196 -0.3897024 0.07010108
000390 25 e8 56 3b b3 9b 01 3e 84 ac 6c 3d 9b 64 73 be
       0.0032792178 0.12657051 0.05778171 -0.23768847
0003a0 61 50 af be 4d 03 7c be 94 48 aa ba c8 90 01 3d
       -0.34241012 -0.24610634 -0.0012991601 0.031632215
0003b0 0d a2 75 3d 0c ee 31 3e 08 d8 27 be 36 5a 51 be
       0.059968997 0.17375964 -0.16391003 -0.20444569
0003c0 9a a2 8c bd a7 bf 51 be 80 2e 41 be 11 06 ef bc
       -0.06866951 -0.20483266 -0.18865395 -0.029177697
0003d0 20 95 04 be 0d 81 88 be 95 a7 aa bb 37 5f 8d be
       -0.12947512 -0.26660958 -0.0052079656 -0.27611706
0003e0 bc 53 ad 3d c0 d1 6f 3d 00 80 85 bd 50 42 01 be
       0.08463237 0.058549643 -0.06518555 -0.12622952
0003f0 6d 84 e8 bd ca 18 1d 3e 6b 5a 07 be 00 51 2b 3d
       -0.11353383 0.15341488 -0.13218085 0.041825294

fc.4.bias f4 [10]
000000 0e 8d ff bd de 15 3f be a6 2f a1 bd 8b 29 d7 bd
       -0.12478076 -0.18660685 -0.07870416 -0.105059706
000010 ab 7c f0 b9 61 e3 f9 bc 07 90 56 3d 02 c1 7e be
       -0.00045869252 -0.03050393 0.05238345 -0.24878314
000020 6a 5a 89 3e e1 63 1d 3e
       0.26826793 0.15370132
